project1_model.pt (torch, 816913 bytes, 77 tensors)

conv.weight f4 [16, 3, 3, 3]
000000 8c b2 65 3f 49 8e d7 3e 36 ef 59 bf 50 2c 91 3f
       0.89725566 0.42100742 -0.8513063 1.1341648
000010 dd b1 f2 3f cf b9 18 be 66 6e e1 3e 5c 31 09 40
       1.896053 -0.1491463 0.4402954 2.1436377
000020 c0 7d f4 3e 60 a3 3c bf e6 cd e3 be ba b5 c8 bf
       0.4775219 -0.7368679 -0.44493026 -1.5680459
000030 35 b8 09 bf 6b cf 4f 3f a5 02 5d bf 13 87 fc bc
       -0.537967 0.8117587 -0.8633216 -0.030826127
000040 07 8e 73 3f 29 76 9b bd f2 06 46 3d e6 63 cb 3e
       0.9513859 -0.07590897 0.048346467 0.39724654
000050 56 b4 66 bf 7e 54 8f 3e 57 d5 9f 3f ac 0b 25 be
       -0.9011892 0.2799415 1.2486981 -0.16117734
000060 31 47 a5 be a8 b7 3f 3f 9e 28 64 bc 42 11 2c be
       -0.32280877 0.7488961 -0.0139256995 -0.16803458
000070 fd 64 19 3f 2b 72 a5 bc 03 38 7c bf 4f 51 16 bf
       0.5991972 -0.020196041 -0.9852297 -0.5871782
000080 75 a6 58 bf 98 bb 54 bf 15 1e ad bf 7d 57 4f bf
       -0.84628993 -0.83098745 -1.3524805 -0.8099287
000090 17 f0 1a bd 6e 79 aa 3f b2 89 10 3e 3b 54 a7 bb
       -0.037826624 1.3318307 0.14115027 -0.0051064766
0000a0 dd 00 57 3f 17 6a 13 bf ac 6d db be af 30 0e bf
       0.8398569 -0.57583755 -0.4285711 -0.55543035
0000b0 44 e2 41 bf 8b 26 04 3f b3 c3 05 40 6b e1 22 3f
       -0.7573588 0.5162131 2.0900695 0.6362521
0000c0 87 6f f3 3e d7 c9 ec 3f ce 05 17 3f f9 f7 e3 be
       0.47546026 1.8499097 0.5899323 -0.44525126
0000d0 4d 28 1b 3f b3 a9 48 3e bd 0e 80 3e 8a da 0e bf
       0.6060837 0.19595985 0.25011244 -0.55802214
0000e0 07 d9 8b 3f fd 08 36 bf 60 86 61 bf f9 1f 71 3f
       1.0925606 -0.71107465 -0.88095665 0.9418941
0000f0 ce 2f 04 3f 36 c0 94 be 4a ff 96 3e c4 bc 80 bf
       0.51635444 -0.29052895 0.29491645 -1.0057607
000100 bd e3 e8 bf ae cc 13 be 2d c9 93 bf 72 81 9a bf
       -1.81945 -0.14433548 -1.1545769 -1.2070754
000110 8d 1a 57 3f ec dd 0f 3e a7 71 a4 3d e6 29 b5 3f
       0.8402489 0.140495 0.0802949 1.4153411
000120 24 0b 44 bf 4c ed 85 bf f3 7b e0 3e 59 93 56 bf
       -0.765795 -1.0463042 0.43844566 -0.83818585
000130 0c 65 b0 be a5 59 b0 3f 81 9a 03 3f 90 ee 20 3f
       -0.34452093 1.3777357 0.5140763 0.6286402
000140 10 f3 0a 40 ad 39 f6 3e b6 f8 d2 3f a7 11 27 3f
       2.1710854 0.48090878 1.648215 0.6526131
000150 f4 e1 85 3f 07 b3 33 40 79 28 c4 3f ea 8c 76 bf
       1.045958 2.807802 1.5324851 -0.9630877
000160 81 f0 62 3e 7a 22 00 3e 8c 0d 54 bf dc 4e 1e bf
       0.22162057 0.12513152 -0.8283317 -0.6183908
000170 42 78 59 bf c8 7d 71 bf 7a 72 4e bf 72 79 5a bf
       -0.84949124 -0.9433255 -0.8064343 -0.8534156
000180 09 6d 18 bf a5 ff 5f bf 7f ff 92 be 8d a6 8f 3e
       -0.59541374 -0.8749946 -0.28710553 0.28056756
000190 aa 37 b4 bd 35 48 94 be 8d f2 8e 3e 49 57 59 bf
       -0.087996796 -0.2896134 0.27919427 -0.8489881
0001a0 c4 ef 93 bf 3e ed 9a 3f fe 83 b5 3e 4f 8b 71 bd
       -1.1557546 1.210365 0.35452265 -0.058970746
0001b0 83 db eb be df cc e0 3f fb 07 cd bd de 4c 21 3f
       -0.46065912 1.7562522 -0.10011288 0.63007915
0001c0 6f 84 0c c0 95 9a 26 bc 12 07 93 3e 48 13 05 3f
       -2.195583 -0.010168691 0.28716332 0.51982546
0001d0 24 45 37 3d 74 a9 95 3e 39 53 67 3f c8 6a 7c be
       0.044743672 0.29230845 0.9036136 -0.24650109
0001e0 ba c2 26 3f b9 fc 4e c0 bf 89 24 be 22 67 30 3e
       0.6514088 -3.234175 -0.16068171 0.17226842
0001f0 09 8d ea 3e 2a 1c 62 3e b3 c5 1a bf 03 b3 c7 3f
       0.45810726 0.22081056 -0.60457915 1.5601505
000200 c6 9e 28 3e f0 e3 68 3d 70 da 97 bf b8 16 18 3f
       0.16466817 0.056858003 -1.1863537 0.59409666
000210 4f 93 bc be f2 b0 b1 3e 62 29 80 3e e3 c5 8d be
       -0.36831138 0.3470531 0.25031573 -0.27690038
000220 dd 6c 9b 3d c7 f0 6a be b8 d2 1e bf ce 6a 81 3e
       0.075891234 -0.22943412 -0.6204028 0.25276798
000230 70 82 31 3f 93 0e f5 3e a6 75 63 3f 54 3c 92 3f
       0.69339657 0.47862682 0.8885139 1.1424661
000240 ce 87 ef be 55 89 34 bf a8 06 9d bd aa 5c 7b c0
       -0.46783298 -0.7052205 -0.07667285 -3.9275308
000250 8d 78 10 c0 8f 4f 01 bf 45 15 a6 bf b6 49 a5 bf
       -2.2573578 -0.5051202 -1.2975241 -1.291312
000260 3b 44 f7 3e f3 53 b1 3f f9 96 81 3f d8 54 b0 3e
       0.48294243 1.3853744 1.0124198 0.3443973
000270 4d 52 81 3e 00 5d b0 3d bf 49 f7 be 37 b4 9d bd
       0.25258103 0.08611488 -0.4829845 -0.07700389
000280 cf 14 09 bf da 9e ca 3c 79 18 86 3e 33 9c 45 3d
       -0.53547376 0.02473395 0.26190546 0.048244666
000290 a7 11 e1 be 9a 28 1c be a0 7b a3 be 16 48 7c 3d
       -0.4395878 -0.15249863 -0.31930256 0.061592184
0002a0 14 d8 90 be 90 0b 17 bf 67 03 33 be 3e 43 a1 3f
       -0.28289855 -0.5900202 -0.17481767 1.2598646
0002b0 f6 76 b6 3f de d2 60 3f b7 bf 65 3f 09 90 6c 3f
       1.4255054 0.8782176 0.8974566 0.9240728
0002c0 2b fd 90 3f f5 1d 3c 3d 6d d7 58 3e 58 8c 9a 3e
       1.1327261 0.045927007 0.21175928 0.301852
0002d0 c5 58 6b 3f 5f 5c 1c 3f 30 fe 2b 3f cc 0e 48 3f
       0.91932327 0.6107845 0.67184734 0.7814758
0002e0 ef 34 e8 3e fd 37 6f 3f 78 5f 15 3f 55 77 cc 3d
       0.45352885 0.93444806 0.583488 0.09983698
0002f0 fa cf a9 3e 11 42 3f bf a4 76 af bf 4a 1d 58 bf
       0.33166486 -0.74710184 -1.3708081 -0.8441969
000300 42 01 6c 3d b9 6b 4b bf fa 71 22 bf ca 44 dd 3f
       0.057618387 -0.79461247 -0.63455164 1.7286618
000310 32 f9 c3 3f 7d 8c 89 3f b9 63 37 be eb b9 1b bf
       1.5310423 1.0745999 -0.17909135 -0.60830563
000320 8d ee 3f be f3 8b ba 3d 70 43 77 bf e0 85 c3 be
       -0.18743344 0.091087244 -0.96587276 -0.38188076
000330 14 03 a4 3f 42 3a 88 3f 21 fe af 3e fa 34 55 3e
       1.2813439 1.0642779 0.34373572 0.2082099
000340 f8 35 09 bf 42 9e 24 3f dd 18 d6 be 7f 94 c5 bf
       -0.53597975 0.6430398 -0.41815844 -1.5435942
000350 59 fa 15 bf ae 7b 5c 3f 44 98 1b 3e 64 2a 7a 3e
       -0.58585125 0.8612622 0.15194803 0.24430233
000360 06 5b 72 3f a1 f2 2e bf 81 83 94 be 18 67 ad 3f
       0.9467014 -0.6833897 -0.2900658 1.3547087
000370 19 5f f9 be e7 60 db be 45 56 4e 3e 1a ba f2 ba
       -0.48705366 -0.42847368 0.20150097 -0.0018518597
000380 3c 9d b0 3e 7a dc 73 3f 42 5a 86 bf f1 ee 34 bf
       0.3449496 0.95258296 -1.0496294 -0.70677096
000390 04 bd dd 3f 70 1a 9c bf c9 2e 42 bf bb b4 8f 3e
       1.7323308 -1.2195568 -0.7585264 0.28067574
0003a0 e6 a2 33 bf ee a2 a6 bc d7 88 aa 3f f9 8b 19 bf
       -0.7017044 -0.020341363 1.332301 -0.59979206
0003b0 e6 ec d8 be 98 03 d3 3f c3 57 11 bf 4a 34 41 bf
       -0.4236824 1.6485472 -0.5677454 -0.7547041
0003c0 86 98 bf bd aa b3 82 be 7f db a5 3d 71 e5 aa bc
       -0.093552634 -0.25527698 0.08098506 -0.02086136
0003d0 94 7b e8 be 14 b9 bc bd 30 3f fd 3f 98 e3 92 3e
       -0.45406783 -0.09214988 1.9784908 0.28689265
0003e0 f6 61 08 3f 16 1c 56 be f0 f3 05 bf 8f 54 96 3e
       0.53274477 -0.20909151 -0.52325344 0.29361388
0003f0 a9 6a a4 bf 24 f4 c3 bf 1f 08 71 bf 70 e9 81 3f
       -1.284505 -1.5308881 -0.94153017 1.0149364

bn.weight f4 [16]
000000 99 e4 05 3f c4 46 85 3f c9 80 94 3f d3 f6 90 3f
       0.5230194 1.0412221 1.1601802 1.1325325
000010 54 16 24 40 11 01 97 3f 91 48 3d 3f 61 7b d9 3f
       2.5638628 1.17972 0.7393885 1.6990777
000020 6e 34 d0 3f aa b0 7f 3f f5 fb 80 3f f7 21 de 3f
       1.6266 0.9987894 1.0076891 1.7354115
000030 06 9c 77 3f 9c df d9 3f bb 3a 95 3f fa 46 61 3e
       0.9672245 1.7021365 1.1658548 0.21999732

bn.bias f4 [16]
000000 ea 94 b1 bd d2 f3 00 3f 3d 6d 27 3f d5 9e 4d 3f
       -0.08670981 0.5037204 0.6540106 0.80320483
000010 6b 57 7d 40 80 0d 27 3f 8a eb 40 bf 0f 47 23 3e
       3.9584606 0.65254974 -0.75359404 0.15945075
000020 59 61 45 3f 73 fb 6b bf 4a a9 40 bd b4 db 54 bf
       0.77101666 -0.92180556 -0.047036447 -0.8314774
000030 bf ec 38 3f d5 c6 15 40 05 14 69 3e 17 05 6f bf
       0.72236246 2.3402607 0.22761543 -0.9336714

bn.running_mean f4 [16]
000000 70 18 0e 40 8d 8f bd 3e f6 36 ea bd 3e 41 b6 3e
       2.2202415 0.37023583 -0.11436264 0.3559665
000010 50 45 a0 3d 6d 92 15 c0 d9 00 86 40 f0 51 7e be
       0.0782572 -2.3370621 4.1876035 -0.24835944
000020 2b 77 b4 bd 62 1e 95 be 6e 45 a2 be db 79 33 c0
       -0.08811792 -0.29124743 -0.31693596 -2.8043125
000030 84 ee 5e 3e fa 9c a4 3e fb 5a 3c be 35 55 9b 3f
       0.21770674 0.32151014 -0.18394081 1.2135378

bn.running_var f4 [16]
000000 2b 0a 4d 40 ff 55 fa 3f 0b da 14 40 6e d3 1b 3f
       3.2037456 1.9557494 2.3258083 0.6086949
000010 8b 7f a3 3e 5b 49 3b 40 a6 cd f5 40 49 7f f1 3f
       0.31933245 2.9263523 7.6813536 1.8866969
000020 02 9f be 3f 87 70 54 3f 77 19 94 3f 83 c3 b1 40
       1.4892275 0.82984203 1.1570271 5.555116
000030 e2 18 4b 40 72 eb 23 3f 4a b8 d0 3e 4b 0a 6a 3f
       3.1733937 0.64031136 0.407656 0.91421956

layer1.0.conv1.weight f4 [16, 16, 3, 3]
000000 c9 33 17 3e cb 6d d5 3e 88 bf 53 bf 90 8c c0 bd
       0.14765848 0.41685328 -0.8271413 -0.0940181
000010 d2 96 e5 3e a4 11 92 be 6b eb 17 3e fc 67 49 be
       0.4484163 -0.28529084 0.14835899 -0.19668573
000020 39 15 47 bf d3 01 bf be c1 84 9e be 34 05 5f 3e
       -0.7776676 -0.3730608 -0.30960658 0.21779329
000030 e3 fe 3a 3f dc 0a d1 3e 4c 85 0a 3f ed 43 ce 3f
       0.73045176 0.40828598 0.54109645 1.6114479
000040 86 d0 91 3f e6 3f 9c 3f 4d c9 d1 bf ac cd 01 bf
       1.1391761 1.2207 -1.6389557 -0.50704455
000050 77 b5 4b be e3 88 fe be bd 25 12 3f 15 5e 03 3f
       -0.19893442 -0.4971381 0.57088834 0.5131543
000060 e3 f8 3e 3f 1d fc 06 3f 04 dc c4 3e 53 c3 60 3d
       0.7459852 0.52728444 0.3844911 0.054873776
000070 6e ea 48 3e 59 61 8b 3e 76 5d ab 3e 47 6a 7b 3e
       0.19620678 0.27222708 0.33469743 0.2455226
000080 e4 e5 f4 3e 98 09 0b 3f d1 47 13 3f 0d 7c fe 3e
       0.47831643 0.54311514 0.5753146 0.49704018
000090 55 4f 38 bf ae 68 ae bb 5f 8d ac 3e 26 97 04 3f
       -0.7199605 -0.0053225374 0.33701608 0.51793134
0000a0 45 b8 84 3f 89 b1 40 be 5e e9 67 3f 02 22 48 bf
       1.0368735 -0.18817724 0.90590465 -0.7817689
0000b0 a0 bd 79 bf 3d 38 62 3f 69 29 0d 40 a6 4c 93 3f
       -0.9755497 0.8836706 2.2056525 1.1507766
0000c0 72 f8 6a 3f 0f 99 dd 3f 79 a3 3a 3f a5 c7 55 bc
       0.9178535 1.7312335 0.7290569 -0.013048087
0000d0 30 47 b5 3e 2b 8b 14 bf b5 e2 c7 3e 37 00 cd 3e
       0.35405874 -0.58024853 0.3904015 0.40039226
0000e0 4d 13 6b 3c 17 18 59 3f 20 0d 58 3f 13 b6 31 3e
       0.014347863 0.84802383 0.8439503 0.17354612
0000f0 6f ce 32 3f d8 ba 43 3f 3f b2 a4 3e fb 18 8c bf
       0.6984624 0.76456976 0.3216724 -1.0945123
000100 d8 d8 ff bf 57 c3 cd bf e1 25 5c 3f af 11 ba 3e
       -1.998805 -1.6075238 0.859953 0.36341617
000110 6d 29 10 bd bf 2f 05 40 34 26 e9 3f 5b 53 94 3f
       -0.035195757 2.0810392 1.8214784 1.1587938
000120 89 1b 0a 3f e7 02 33 bf 1b 94 13 bf 4a 75 46 3f
       0.53948265 -0.69926304 -0.57647866 0.7752272
000130 db 9b ab be a2 f5 fd bc 87 76 ac 3f 55 72 84 3f
       -0.33517346 -0.031000916 1.3473672 1.0347391
000140 be ec 0c 3f 22 13 80 bf bc 6c 69 bf c0 f7 86 bf
       0.5504874 -1.0005839 -0.9118154 -1.0544357
000150 1f 7b 15 be c2 69 a5 bd 77 2f d4 be 13 86 28 3f
       -0.14597748 -0.08076812 -0.41442463 0.6582958
000160 f1 1b c3 3e fe e7 a9 be 05 de 77 be 37 3d c6 be
       0.38107255 -0.33184808 -0.24205787 -0.38718578
000170 b4 70 00 be 37 47 3a 3f 8d de 3d 3f e3 18 2f 3f
       -0.12542993 0.72764915 0.7416771 0.6839735
000180 db 4c 7e 3f 40 ed 90 3f 94 dc 94 3f ad b9 6a 3f
       0.9933602 1.1322403 1.1629815 0.9168957
000190 81 42 18 40 82 65 bb 3f 15 b2 c3 3f 22 da 02 40
       2.379059 1.4640353 1.5288721 2.0445638
0001a0 c8 08 94 3f 39 fd 72 3f b9 cd 6a 3d b7 d1 84 bf
       1.156518 0.9491764 0.0573251 -1.03765
0001b0 29 e5 95 3d 55 68 04 be 52 54 81 be 6b e8 5d bf
       0.073190995 -0.12930425 -0.25259644 -0.86682767
0001c0 80 71 88 bf 0a 84 4a bf ec 6e 3b c0 2f 1a cb bf
       -1.0659637 -0.79107726 -2.9286451 -1.5867366
0001d0 a1 74 d3 bf f4 8f 50 bf 76 69 10 bf b6 29 0e bf
       -1.6519967 -0.81469655 -0.5641092 -0.55532396
0001e0 d6 87 b0 be 5f 05 23 be ee c1 23 3f d5 e4 78 3f
       -0.34478635 -0.15920018 0.6396779 0.9722417
0001f0 9a 37 97 3f 74 a9 5c 3f 2f fc 41 bf 7f fa 3e be
       1.1813843 0.86196065 -0.75775427 -0.18650244
000200 41 e1 12 bf ba 30 62 be 1a 81 24 3f 63 0f 1d 3f
       -0.5737496 -0.220889 0.64259493 0.61351603
000210 44 d8 04 3f 34 30 9f 3f fc f8 82 3f a1 7e 19 3e
       0.51892495 1.2436585 1.0232234 0.14989711
000220 d6 8a bb 3e ec 68 e2 3d 02 d2 b3 3e fb fa d8 3e
       0.3662936 0.110551685 0.3512116 0.42378983
000230 68 0e 8e 3e c9 6d c6 3e 0e ce 09 3f eb 97 cb 3e
       0.27745366 0.38755634 0.5383004 0.39764342
000240 e9 70 8c 3c 0b a0 4b 3c f4 2c 83 3c 89 66 a4 3d
       0.017143684 0.012428294 0.016012646 0.080273695
000250 ae f4 53 be 2f d3 d2 be fa 56 96 bd 9a c0 d9 be
       -0.20698807 -0.41176745 -0.07340808 -0.42529756
000260 00 d5 17 be 74 0e 17 bf 1e 48 fa be cb a6 30 bf
       -0.14827347 -0.5900643 -0.48883146 -0.69004506
000270 7d e1 2e bf b6 dc b3 be a1 36 cc be 6b e1 0a bf
       -0.6831282 -0.35129327 -0.3988543 -0.5425021
000280 c2 bd 9c be 8b 0c b4 bd 45 97 ae bf 7b 6c b6 bf
       -0.30613524 -0.08791455 -1.3639914 -1.4251856
000290 fc ef cc 3e a7 81 8a bf 6d 1d 27 bf df a9 99 bc
       0.40026844 -1.0820817 -0.65279275 -0.018757759
0002a0 6a 8e 91 bf 99 75 a5 ba 6f 31 47 3f f7 6d ca 3f
       -1.1371586 -0.0012623548 0.77809805 1.5814809
0002b0 d8 96 36 3f c1 d7 21 3f 2d c5 a3 3f d2 76 a8 3e
       0.7132392 0.6321984 1.2794548 0.32903153
0002c0 9b 4d 84 3e d0 bc d3 3f d2 dd 65 3f 07 31 39 3f
       0.25840458 1.6541996 0.89791596 0.72340435
0002d0 19 db 3a bf 56 0b 70 3f a3 30 82 3f 48 f3 b2 3e
       -0.72990566 0.937673 1.0171093 0.34951234
0002e0 d9 bf 15 40 de ef a0 3f 9b 62 6f bf eb 40 5a 3e
       2.3398345 1.2573202 -0.93509835 0.21313827
0002f0 27 20 18 bf a6 e6 91 bf ea 4f 9a bf 5e 54 a7 bf
       -0.5942406 -1.1398513 -1.2055638 -1.3072622
000300 e7 75 80 bf 38 ac 77 bf 57 9e 2f bf 64 ef d1 bf
       -1.0035981 -0.9674716 -0.6860098 -1.6401181
000310 b2 3e 81 bf 1f 00 39 bf 60 ac 26 3b 53 f1 8b bd
       -1.0097258 -0.7226581 0.0025432333 -0.06833138
000320 7d cf ea be bb bc 23 be ed 30 62 be ed 6f 1a bf
       -0.45861426 -0.15989964 -0.22088976 -0.60327035
000330 a0 8e 08 bf 05 9d 26 bf e1 3a 96 bf a2 1d 92 bf
       -0.5334263 -0.6508334 -1.1736718 -1.1415293
000340 a4 b4 b3 bf e8 6e d4 bf 8e c7 b2 bf ce 44 d4 bf
       -1.4039502 -1.6596346 -1.3967149 -1.6583498
000350 58 84 b0 bf 14 74 f3 be c2 64 ef be 1a ad b0 3e
       -1.3790388 -0.47549498 -0.4675656 0.34507066
000360 4d 79 25 3d a6 1d 2a bf d8 51 97 be ad 84 b6 bf
       0.040398885 -0.6645149 -0.2955463 -1.425924
000370 77 a3 00 c0 f6 d2 9e bf 5d 5c 57 bf ef a4 14 c0
       -2.009977 -1.240813 -0.8412531 -2.3225667
000380 32 1c 78 bf 17 88 c7 be f8 77 75 3e f4 63 ac 3e
       -0.9691802 -0.38971016 0.23971546 0.33670008
000390 65 c2 85 be 1c a2 8a 3e a2 aa 4e 3e 4e fa 3a be
       -0.26124874 0.27076805 0.20182279 -0.18259546
0003a0 60 04 06 3f a1 a7 9b 3e 47 7a 11 bf 3b 78 81 3e
       0.52350426 0.30401328 -0.56827205 0.2528704
0003b0 2d d4 5c 3e 49 dd 99 bd 81 f4 68 3f 71 da 4f 3f
       0.21565314 -0.0751291 0.90998083 0.8119269
0003c0 d3 e1 f0 be 2f 21 02 3f 0e 53 8c 3e a6 5b d0 be
       -0.4704729 0.50831884 0.27407116 -0.40694922
0003d0 d2 01 52 3d 1e fe d3 3d 2f 77 4c bc 0c 09 0d 3f
       0.051271267 0.103512034 -0.012479587 0.5509193
0003e0 44 c8 a8 3e 7d e0 92 bf cc 7b 43 bf 3c e0 ef be
       0.3296529 -1.1474758 -0.76360774 -0.46850765
0003f0 a0 a1 b3 3e b6 08 b9 3d ae 96 6d 3d 6c ce 59 bf
       0.35084248 0.090348646 0.058005027 -0.850806

layer1.0.bn1.weight f4 [16]
000000 e1 1a d0 3f bc 06 6d 3f 3c 6c 8c 3f 30 a4 9e 3f
       1.6258203 0.925884 1.097053 1.2393856
000010 8b 3a a2 3f d5 ad 91 3f 86 f5 ab 3f b7 c2 8e 3f
       1.2674116 1.1381174 1.3434303 1.1153172
000020 1a 24 b4 3f 0b ec 43 40 02 00 a8 3f 97 3f d1 3f
       1.4073517 3.061282 1.3125002 1.6347531
000030 27 0a 8a 3f 8e 40 1a 40 f3 ad a6 3f d9 7f e9 3f
       1.0784348 2.41019 1.3021835 1.8242141

layer1.0.bn1.bias f4 [16]
000000 e1 b3 c5 bf d5 eb 03 bf 06 92 14 3e fc 93 2b bf
       -1.544552 -0.51531726 0.14508829 -0.6702268
000010 2c 73 25 bf db 7e 4e bf 9a 42 4f be 75 fa b1 bd
       -0.64628863 -0.80662316 -0.2024025 -0.08690349
000020 09 e9 84 be 52 d7 c3 bd 2a c1 eb be af 9a 6f 3f
       -0.25959042 -0.095625535 -0.4604581 0.93595403
000030 35 1f 16 bf 0c e2 20 40 e4 3a 12 bf ca 26 38 3f
       -0.5864137 2.5137968 -0.5712111 0.7193419

layer1.0.bn1.running_mean f4 [16]
000000 a4 74 85 41 66 b4 ad c1 e1 0e ec c1 8d 3d cf bd
       16.681953 -21.713085 -29.507265 -0.10119162
000010 39 d2 4e 42 d7 eb bc bf 53 b5 10 c2 62 b7 89 c1
       51.705296 -1.4759473 -36.177074 -17.214542
000020 af 7a 0a c1 92 fc 98 c0 d7 f5 05 c2 dc 80 9a c1
       -8.654952 -4.7808313 -33.490078 -19.31292
000030 bc 77 bf c1 89 27 9e 3e 47 07 4f c1 2a 03 a6 c1
       -23.933464 0.30889538 -12.939277 -20.751545

layer1.0.bn1.running_var f4 [16]
000000 b6 93 9c 43 9c 97 7e 43 cd 89 80 43 d3 b3 67 43
       313.154 254.59222 257.07657 231.70244
000010 f2 85 16 43 fd bd 8c 43 91 16 92 43 ba 48 9d 42
       150.52322 281.48428 292.1763 78.642044
000020 73 3a d3 43 70 0a 45 44 14 ea 5b 43 55 17 76 43
       422.45663 788.1631 219.91437 246.09114
000030 37 1c 00 43 54 da 37 43 f3 d1 c2 42 b5 93 b4 43
       128.11021 183.85284 97.41006 361.15396

layer1.0.conv2.weight f4 [16, 16, 3, 3]
000000 a7 3e 7c bf e1 6b fa bf 0a cc 86 bf ff f6 14 be
       -0.985331 -1.9564172 -1.0531018 -0.14547347
000010 96 19 ae bf 15 08 a9 be 2b 0b 42 3f 24 8c f1 3e
       -1.3601558 -0.3301398 0.7579829 0.4717723
000020 78 13 86 3f 3e 91 1b 3e a6 12 ff bc 15 bf d0 bc
       1.0474691 0.15192124 -0.031136822 -0.02548174
000030 48 54 cc be b0 36 a2 be ef 41 60 bd 7e 7f 6e bf
       -0.39908051 -0.31682348 -0.05475038 -0.9316329
000040 7d d5 21 bf db 86 30 be 4a 03 32 bf 69 a1 4d be
       -0.6321638 -0.17238943 -0.6953627 -0.20081104
000050 81 ce 10 bf 40 bb ea be 66 7e 9f 3e cd 15 47 bf
       -0.565651 -0.45845985 0.31151122 -0.7776764
000060 99 bf 7f be c6 40 1f 3f 7d de 5c be 8f 17 69 bf
       -0.24975432 0.6220821 -0.21569248 -0.9105157
000070 30 75 97 be 4a bc 14 bd 38 e7 3c be c3 a7 ad 3e
       -0.29581594 -0.03631238 -0.18447578 0.33917055
000080 6b 8d df 3e 3e 07 5d 3e 10 09 3b 3f db 5f 5e 3f
       0.4366258 0.21584794 0.73060703 0.86865014
000090 46 d7 2a 3f 74 86 b4 3d 41 1c 07 bf e9 17 2a bf
       0.6673473 0.088147074 -0.5277749 -0.66442734
0000a0 1c 0e 78 be 8a f7 15 bf ca 21 18 bf b2 93 36 be
       -0.24224132 -0.5858084 -0.5942656 -0.17829779
0000b0 49 22 83 bf 13 2b 4d 3e 15 81 4e 3e a1 2a 18 3f
       -1.0244838 0.20035963 0.20166428 0.59440047
0000c0 78 df c1 3d a1 2a e4 be 2d c5 da be 62 8b bb 3e
       0.094664514 -0.44563773 -0.42728558 0.36629778
0000d0 d2 2b 2d bf 74 46 a4 bf 12 09 86 bc 2e e2 34 3d
       -0.6764499 -1.2834 -0.016361747 0.044161014
0000e0 0a 8f f3 3d f9 4a 83 be bc ee ae 3e fb 4d 77 3f
       0.11892517 -0.25643137 0.34166515 0.96603364
0000f0 c7 e0 16 3f c8 40 77 3f dd 8b a5 3f 1c c0 9b bd
       0.58936733 0.96583223 1.2933308 -0.07605001
000100 24 96 68 3f 9b 29 92 3f 6a 28 68 bf e8 86 56 be
       0.90854096 1.1418947 -0.90686667 -0.209499
000110 d1 7f b2 3d 4a d2 90 bf f4 1b 99 bf 4a bc b0 be
       0.08715785 -1.1314175 -1.1961656 -0.34518653
000120 93 6e 73 3f 2a 13 23 3f 55 6b d1 3f 0d 85 c6 be
       0.950906 0.6370112 1.636088 -0.38773385
000130 77 be 14 c0 24 a7 30 bd b8 19 4a be fa e6 ea bf
       -2.324125 -0.043128148 -0.19736373 -1.8351738
000140 ae 53 da bf c2 ae 0f c0 b6 fb 62 c0 3b ff a8 be
       -1.7056787 -2.2450414 -3.5466132 -0.33007225
000150 b9 c2 51 c0 26 6c cf c0 b2 b8 dc bf 41 45 f8 bf
       -3.27751 -6.4819517 -1.7243865 -1.9396135
000160 69 52 87 c0 90 e2 50 c0 2d 2c c1 be a7 52 ee bd
       -4.22881 -3.2638283 -0.37729016 -0.116368584
000170 13 e3 1c be 28 7f 94 bd 31 6b ab 3e 49 19 b8 3d
       -0.15320997 -0.07250816 0.33480218 0.08989198
000180 59 28 89 3e c0 86 3d 3f 16 73 82 3e 9f 3a 22 3f
       0.26788595 0.7403374 0.2547843 0.633707
000190 a5 dd 30 3f e4 a9 90 be a0 6e 92 be fd 7f c4 3e
       0.690882 -0.28254616 -0.28600025 0.38378897
0001a0 e8 38 be 3e 22 11 83 be e3 25 b6 3d 1e 43 71 3c
       0.3715279 -0.2559901 0.08893945 0.014725475
0001b0 8f 2c e9 bd ba 69 18 3e c2 21 22 3f 2d 52 ef be
       -0.11385452 0.14884081 0.6333276 -0.46742383
0001c0 72 8b 0a bf 0c 33 a6 bd b5 79 50 be a6 82 87 bf
       -0.54119027 -0.08115205 -0.20358928 -1.0586746
0001d0 ec be 26 bf cc 89 72 3e d3 6b 41 3e 71 e8 3a 3f
       -0.65135074 0.23685378 0.18888788 0.7301093
0001e0 7a 32 ff be 7f cc af bf d9 1b de 3e 7d 7a c4 3e
       -0.49843198 -1.3734282 0.4338062 0.383747
0001f0 39 65 39 3e a0 d0 b2 bf 4d 5a 6e 3d dd d8 f5 3e
       0.1810502 -1.3969917 0.058191586 0.48017016
000200 7e d9 14 3f af 01 9b 3d b8 13 ed be 07 5a 82 3c
       0.58144367 0.075686805 -0.46304107 0.015912069
000210 b2 0c 72 3f 00 19 be bd 43 0d 29 bf f3 f8 65 3e
       0.9455062 -0.09282112 -0.6603586 0.22458248
000220 f5 68 37 3e 01 41 f0 be 45 aa 64 be 42 5d 53 bd
       0.17911132 -0.46924594 -0.22330578 -0.05160261
000230 1c 69 d2 be e9 e8 66 3e 1d cb 19 bf 8b fc 7d 3e
       -0.41095817 0.22549786 -0.6007555 0.24803369
000240 9c b4 6b bf 50 b9 ce bf eb 3e fe bf 71 5e 83 bf
       -0.92072463 -1.6150303 -1.9862951 -1.0263196
000250 bc 6e 76 bf 19 1a 6d bf b5 19 bf be 9c c4 cf 3d
       -0.9626272 -0.92617947 -0.373243 0.10144922
000260 29 34 98 3e ab 06 de 3e ec c4 88 3f 14 76 44 3f
       0.29727295 0.43364462 1.0685096 0.7674267
000270 ff d3 1d be d0 7c a0 be 7d d5 96 bf 05 6a b8 be
       -0.15412901 -0.31345224 -1.1783901 -0.36018386
000280 4e 66 1d bf be 42 be be f9 4f 0c bf da f4 91 be
       -0.6148423 -0.37160295 -0.5480953 -0.2850712
000290 30 40 a6 be 5d 09 c0 bd 5f 50 53 be 4e cb 29 be
       -0.32470846 -0.09376786 -0.20636128 -0.16581461
0002a0 c3 ae 44 bf 9a 20 8f bf 78 8b e3 be 57 1a cb 3e
       -0.76829165 -1.1181824 -0.44442344 0.39668533
0002b0 47 a2 4e 3f e4 3a 89 be ba ed 6e bd 59 9c cd 3e
       0.80716366 -0.26802742 -0.058332182 0.40158346
0002c0 35 9e 2e bf 96 5e 97 bf df fe a3 bf db 24 b4 bf
       -0.68210155 -1.182574 -1.2812155 -1.4073747
0002d0 5d d3 38 bf 6c 14 a5 3e 7b 0d 5f 3f db 78 9d 3d
       -0.72197515 0.32242143 0.87129945 0.07689067
0002e0 29 18 89 3e 20 ef 98 3e 35 15 94 3f 8d 05 2f 3d
       0.26776245 0.29869938 1.1568972 0.042729903
0002f0 ba 5c 4d bf f1 f1 21 3f 4a 4e 16 be 75 44 51 be
       -0.80219615 0.632598 -0.14678302 -0.2043627
000300 68 85 1c 3f 22 1d 9e bd ad 13 9e be 6b 93 a2 3e
       0.6114106 -0.077204004 -0.30874386 0.31753096
000310 ca 4d 34 3f d7 29 71 3f a5 0b b7 3e 50 85 84 3f
       0.70431197 0.9420447 0.35751072 1.0353184
000320 d4 45 63 3f ec d5 27 bf 94 37 cf bf 91 15 32 bf
       0.88778424 -0.65560794 -1.6188836 -0.6956416
000330 e7 78 69 bf e5 b0 0d c0 0a f3 88 bf 5c 18 7c 3f
       -0.9120011 -2.2139218 -1.069917 0.9847467
000340 d3 bc 9d 3f 46 57 0e 3e c6 36 00 40 2d 79 f6 3f
       1.232325 0.1390048 2.003343 1.925573
000350 42 de 03 3f 55 ba f1 be e9 56 32 bf 92 e1 97 bf
       0.51511014 -0.47212473 -0.69663864 -1.1865714
000360 fe 2b eb be 9d 94 96 bc 1c f2 84 3d 0a f3 dd 3d
       -0.45932 -0.018381411 0.06491491 0.10837372
000370 af 03 d8 3f 93 b3 07 40 a7 30 06 3e c4 27 c0 3f
       1.6876124 2.1203353 0.13104497 1.5012136
000380 1d 49 f4 3f 00 5a 82 3f 35 84 b2 3f f1 20 6b be
       1.9084812 1.0183716 1.3946596 -0.22961785
000390 ce 47 0a 3f 94 e7 cf 3f a5 2b 02 3f c1 97 94 bd
       0.54015815 1.6242547 0.50847846 -0.07255507
0003a0 42 ef d2 3e 53 07 37 3f 69 b3 fc be 37 2a 89 3e
       0.41198164 0.7149555 -0.4935563 0.2679002
0003b0 b4 43 85 3d 43 2f ce be bc bd b8 be c3 c0 a8 be
       0.06507054 -0.40270433 -0.36082256 -0.32959566
0003c0 0f b5 b3 bd 89 da 97 bf 99 1d 91 3e eb d9 19 be
       -0.087747686 -1.1863567 0.28342894 -0.15024535
0003d0 ee 9e 81 3f 69 29 81 3f e8 7c f9 be 9b 71 3a bf
       1.0126626 1.0090762 -0.48728108 -0.728296
0003e0 40 d0 36 bd 24 a8 22 bf fb 51 4f bf 4e e8 a7 3e
       -0.044632196 -0.6353781 -0.8098447 0.32794422
0003f0 b2 be c9 be a8 74 3d bf fb c2 6f bf 08 62 0d 3e
       -0.394033 -0.7400613 -0.9365689 0.13806927

layer1.0.bn2.weight f4 [16]
000000 f0 32 5f 40 4d 13 9b 3f b2 d5 ba 3f e2 93 2f 3f
       3.487484 1.2115265 1.4596465 0.68585026
000010 95 8c 40 40 a2 c2 79 3f a7 3e ce 3f 3f f5 81 3f
       3.0085804 0.9756261 1.611287 1.0152968
000020 d7 3d bd 3f e1 0e a8 3f 77 26 bb 3f 46 b3 77 3f
       1.4784497 1.3129541 1.4621114 0.96757925
000030 3b 13 e9 3f 4f e2 a7 3f 03 0c 52 3f 1b bc 14 40
       1.8208994 1.3115939 0.8204958 2.323981

layer1.0.bn2.bias f4 [16]
000000 ef ae 66 bd 7b b3 09 3f 03 8e 5f bd 19 ed 06 3e
       -0.056319173 0.5378949 -0.054578792 0.13176383
000010 f7 a2 0e be 27 8b 9d be fb 9f 88 be d3 79 87 3c
       -0.13929354 -0.30770227 -0.26684555 0.016537583
000020 90 31 0c 3e db f7 b5 3e 37 4c 28 3f 11 79 a2 be
       0.13690782 0.3554066 0.65741295 -0.3173299
000030 54 2f 0e bf 0d 09 49 bf be d8 0f 3f 49 df 98 be
       -0.55540967 -0.78529435 0.561901 -0.29857853

layer1.0.bn2.running_mean f4 [16]
000000 63 fa cc c1 be f3 ba 40 08 f1 7c c0 ef 08 c6 40
       -25.62226 5.8422537 -3.9522114 6.1885905
000010 c6 58 1f c1 3c 2c f2 bd 15 14 14 c1 3e b7 ba 40
       -9.959173 -0.11824843 -9.254903 5.8348684
000020 62 6f 2f c1 57 80 61 40 b7 b4 a9 c1 60 0d 33 40
       -10.964693 3.5234582 -21.21324 2.7976913
000030 10 00 56 c1 5e ca 4f c1 ef c6 2c c1 08 df 85 c0
       -13.375015 -12.986906 -10.798568 -4.1834755

layer1.0.bn2.running_var f4 [16]
000000 f4 8b 82 44 d7 a1 49 43 ec 51 ef 43 90 ef b7 42
       1044.3735 201.63219 478.64 91.967896
000010 1c e6 4c 43 bf 7b 77 43 63 6a 41 43 e3 c4 56 43
       204.89886 247.48338 193.41557 214.76909
000020 3e e7 8e 43 ef 67 3e 43 b1 b9 87 43 bb 70 51 43
       285.80658 190.40599 271.4507 209.44035
000030 35 0b 7f 43 c0 63 7b 43 36 e3 60 43 32 05 e1 43
       255.04378 251.38965 224.88754 450.0406

layer1.1.conv1.weight f4 [16, 16, 3, 3]
000000 b5 66 7a 3e d4 34 b1 3f 6f a9 6c 3f c6 a5 d2 be
       0.24453242 1.3844247 0.92446035 -0.411421
000010 ff 57 23 3f d1 c2 8c 3c 05 19 54 3f 31 7e 03 3f
       0.63806146 0.01718274 0.82850677 0.5136443
000020 bb 4e 49 bf 60 62 77 3f 0f 87 22 3f 2f 68 02 3f
       -0.7863576 0.96634483 0.63487333 0.5094022
000030 6f e1 a8 3c 31 11 67 3f d5 99 00 3f 62 07 8e be
       0.020615308 0.90260607 0.5023473 -0.27740008
000040 4c 93 cf 3e 15 0d 43 3d 42 7f 7b bf 27 3c 31 bf
       0.40542066 0.047619898 -0.98241055 -0.6923241
000050 e6 ab 7d bf db 1e 2c 3e d9 c2 58 3c fd 00 4c bf
       -0.9909042 0.16808645 0.013230049 -0.7968901
000060 1c 0c 29 3f 01 66 29 3f a3 dd f1 be cf bd 25 3f
       0.660341 0.6617127 -0.47239408 0.6474275
000070 6c 68 ce 3e 52 a6 14 3e 97 57 9f 3e 95 e1 63 3f
       0.40314043 0.14516571 0.31121513 0.89016086
000080 17 29 81 3e bf 04 c3 3e ad fe 90 3e a2 a4 88 be
       0.25226662 0.38089558 0.28319302 -0.26688105
000090 f3 f9 8d 3e 12 a3 bc bf b2 39 3b be 2a aa 27 40
       0.2772976 -1.4737265 -0.18283728 2.619761
0000a0 52 7d 5a c0 6b e4 84 3f 71 f9 88 be d0 de 0f 3f
       -3.413899 1.0382208 -0.2675281 0.5619936
0000b0 a9 15 7f bf f7 32 d7 3d 93 b1 d7 be 97 c8 07 3f
       -0.99642426 0.10507768 -0.42127666 0.5304045
0000c0 85 42 77 3f 9a 24 02 3f 3d 46 92 3e ba 73 18 3f
       0.96585876 0.508371 0.28569213 0.59551585
0000d0 4e 24 dc bd 2d d7 1f 3f e6 b9 54 bf a8 ab 5a 3d
       -0.10749112 0.6243771 -0.8309616 0.05338636
0000e0 a4 e6 b1 3f 29 1f 4a 3e 89 dd e2 be 76 1e 78 bf
       1.3898511 0.19738449 -0.44309643 -0.9692148
0000f0 63 a7 22 c0 90 ac b6 3f 43 78 97 3e d4 51 0e bf
       -2.5414665 1.4271412 0.2958394 -0.5559361
000100 19 ec 87 be 8c 83 cc bd 6b 70 d6 be eb 0c dd bd
       -0.26547316 -0.09986028 -0.41882643 -0.107934795
000110 12 93 f4 3e ce d1 bb 3e 26 de 75 3e 6d 31 68 3f
       0.47768456 0.36683506 0.24010524 0.9070042
000120 29 47 86 bf ca 26 07 c0 95 05 f9 bf 66 af 44 c0
       -1.0490466 -2.1117425 -1.9454829 -3.0732055
000130 8a b8 6d c0 5d 83 21 3f 18 b1 8b bf f3 ad d1 bf
       -3.7143884 0.6309107 -1.091342 -1.638121
000140 6d dc b8 be 85 da d2 3e d9 93 ba 3e 98 b3 6d bf
       -0.36105672 0.41182342 0.36440924 -0.92852163
000150 05 a2 f3 be dd f0 1a 3f e4 8e b2 3e a1 1d 29 3f
       -0.4758455 0.6052378 0.34874642 0.66060835
000160 c6 40 12 3f 4e 8f b4 3e d9 65 2a 3f ec ae 2e 3f
       0.57130086 0.35265583 0.6656166 0.6823566
000170 11 b1 20 3d 65 12 44 be d7 75 5a 3f 01 9d 93 3e
       0.039231364 -0.19147642 0.8533606 0.28830722
000180 b8 3d 11 bf e8 4b 11 3e 60 12 32 bf c1 21 a3 bf
       -0.567348 0.14189112 -0.6955929 -1.2744676
000190 84 c8 fd bf ae 75 1b be 2e 50 38 3d fc d8 a6 bf
       -1.9826818 -0.1518161 0.04499834 -1.3034968
0001a0 0c a2 7f 3e 79 64 ad bf 4c dd dc bf 90 eb 3e 3f
       0.2496416 -1.3546287 -1.7255034 0.7457819
0001b0 38 70 b6 3f 13 2f 47 bf 12 bb 84 bf 77 4e b9 bf
       1.4252996 -0.77806205 -1.0369589 -1.447707
0001c0 d6 86 30 be a7 5a c8 3e a4 52 da be ae 2a f8 bd
       -0.17238936 0.39131662 -0.42641175 -0.121175155
0001d0 72 74 23 be 34 6f 29 bf b2 c1 bc bf 05 cd eb bf
       -0.15962389 -0.6618531 -1.4746611 -1.8421942
0001e0 88 3d a3 3f 21 1b 33 3f 75 d3 d5 bf 09 d9 0e 3f
       1.2753153 0.6996327 -1.6705157 0.5579992
0001f0 db 54 06 bf 2f 5e ba 3e 89 3d 8c 3f c5 dd 00 3e
       -0.5247323 0.3639998 1.0956279 0.12584598
000200 07 82 17 bf 5f ff 0c 3f 1e 2f 67 3e 84 52 21 bf
       -0.5918278 0.55077165 0.22576568 -0.63016534
000210 73 66 82 3f 45 15 dd be a6 a5 17 bf 3f 7a 03 c0
       1.0187515 -0.4318029 -0.59237134 -2.0543363
000220 d7 fa 9e bf 9e d9 61 bf 41 fc 09 c0 b0 b0 cf 3e
       -1.24203 -0.8822268 -2.1560214 0.4056449
000230 1f a7 a0 bf ea c1 eb be 54 cb cc 3e f8 af ff be
       -1.2551001 -0.46046382 0.39998877 -0.4993894
000240 d0 5d 5a bf 06 25 71 be dc 69 58 3c 86 e1 aa 3d
       -0.85299397 -0.2354928 0.013208833 0.083437964
000250 b2 cb ad 3d 5d 7a 3c bd c4 94 7c 3e f9 e3 07 3f
       0.084861174 -0.046015132 0.24666125 0.53082234
000260 d2 3c 60 3f fe d5 18 bf 2e 18 df be b9 09 1c bf
       0.87592804 -0.59701526 -0.43573135 -0.60952336
000270 f8 21 f0 be b6 09 31 3e 74 3f aa bd 7a 28 9a be
       -0.46900916 0.1728886 -0.08312884 -0.30109006
000280 d3 81 12 3f d1 9e bd 3d 6a 94 e7 be 87 0e 32 bf
       0.57229346 0.092588075 -0.45230418 -0.69553417
000290 69 e9 1f bc bd 12 02 3d be 70 47 bf 0e ad de 3d
       -0.009760239 0.03175615 -0.77906406 0.10872851
0002a0 80 ea 07 3f 30 4c 5f be 86 c8 2f be 0c e8 d8 3f
       0.53092194 -0.21806407 -0.17166337 1.6945815
0002b0 5d 1b cf 3f 93 9a 92 3f a1 08 28 3f 3a 10 0f 3e
       1.6180226 1.1453422 0.65638167 0.13971034
0002c0 d3 e9 81 be 65 82 c4 bf b5 81 0c c0 61 d1 0f c0
       -0.25373706 -1.5352293 -2.1954167 -2.2471545
0002d0 d8 0b 5e be 05 f9 0d bf 94 83 c1 3f 37 b0 a0 3b
       -0.21684206 -0.554581 1.511828 0.004903819
0002e0 7d 40 9c 3f 21 0a 2e 3e f3 98 2c bf 5f 0d d4 bd
       1.220718 0.16996051 -0.6742088 -0.10354113
0002f0 59 f8 6b 3f ff 5f a2 3e 3e cd d3 bd ce 83 03 bf
       0.92175823 0.31713864 -0.10341881 -0.51372993
000300 3d 9d ea 3e 18 82 c0 be 57 9c fa be 85 36 4e 3f
       0.45823088 -0.37599254 -0.48947403 0.8055194
000310 95 78 dc 3e da 59 27 3f 6b 08 cc bf 52 76 c1 bf
       0.43060747 0.6537148 -1.5940069 -1.5114233
000320 f0 6c 23 be 05 04 cd be b9 a5 44 3f 24 f2 20 3f
       -0.15959525 -0.4004213 0.7681537 0.6286948
000330 59 22 87 bf 25 17 95 bf 65 bb 19 be 36 17 91 bf
       -1.0557357 -1.1647688 -0.15012892 -1.1335208
000340 10 c8 d7 bf 86 fb cc bf 5d 03 ce bf 40 28 f5 bf
       -1.6857929 -1.6014259 -1.6094776 -1.9152908
000350 24 c6 3c c0 66 cb 17 bf 08 2b 50 bf 5f e5 a6 bf
       -2.9495935 -0.59294736 -0.8131566 -1.3038749
000360 25 71 43 3f 62 6a 5b 3f 04 36 4a 3f 73 e0 67 bf
       0.7634452 0.857092 0.7898867 -0.9057686
000370 bd a3 b2 3e 68 57 f5 be b5 e7 fa bf 93 69 e0 3e
       0.34890547 -0.47918248 -1.9601961 0.43830547
000380 52 da bf 3d 33 70 11 3f 9f c9 82 bd 37 3e e3 3e
       0.09367813 0.5681183 -0.063861124 0.44383404
000390 12 2f e1 bd db 58 64 bc fd ff 4c 3e 6c a3 ad be
       -0.10995306 -0.0139372 0.20019527 -0.33913743
0003a0 e1 ed a6 bd be 78 d4 bd 8c 62 a1 bf c3 0b 36 bf
       -0.081508406 -0.10374592 -1.2608199 -0.71111697
0003b0 b2 d3 11 bf c6 60 dc bf 4f 56 9e bf d4 45 5e be
       -0.56963646 -1.7217033 -1.2370089 -0.21706325
0003c0 44 c9 e2 be da 4d 8a 3e 5d d3 3e 3f 48 fd 56 3f
       -0.44294178 0.2701252 0.74541265 0.83980227
0003d0 5b f6 21 bf 6d 53 14 bf 31 95 39 be 77 42 de be
       -0.63266534 -0.579398 -0.18123318 -0.43410084
0003e0 90 0d 1c bf 42 c1 92 bd 6c 01 1c 3f d3 2e 95 3f
       -0.60958195 -0.07165767 0.6093967 1.1654915
0003f0 6d ec 6c 3f 04 37 81 3f 36 b4 d0 3e f2 4e 8d 3f
       0.9254826 1.0094914 0.4076249 1.1039717

layer1.1.bn1.weight f4 [16]
000000 41 52 1b 40 1a 9e a8 3f c4 3d d9 3f 2a 75 c6 3f
       2.4268954 1.3173249 1.6971974 1.5504506
000010 6f 84 25 40 85 31 bd 3f a5 1a b6 3f f5 f6 98 3f
       2.586208 1.4780737 1.4226881 1.1950365
000020 ab 06 85 3f f5 ef a2 3f 54 60 d6 3f 88 3e aa 3f
       1.039266 1.2729479 1.6748147 1.3300333
000030 43 48 eb 3f a8 82 cf 3f 08 b5 ab 3f c1 bc 13 40
       1.8381428 1.6211748 1.3414621 2.3083956

layer1.1.bn1.bias f4 [16]
000000 1b d9 01 3f f8 d1 2e bf 77 2b 57 3d 95 8e e5 bf
       0.507219 -0.68289137 0.052531686 -1.7934138
000010 59 8b 23 bc d3 a2 48 bf a8 19 11 3f 70 05 59 bf
       -0.009981954 -0.7837345 0.56679773 -0.8477392
000020 69 f4 c9 be 6c 7a 86 bf 6b 7d 99 be 52 dd 56 be
       -0.39444283 -1.050611 -0.299785 -0.20982864
000030 62 58 91 be 6a e6 03 bf b7 d8 4d bf 5b a4 39 3f
       -0.28387743 -0.5152346 -0.80408806 0.7251641

layer1.1.bn1.running_mean f4 [16]
000000 48 02 e5 c1 fe 0e c2 c1 4c 62 a4 c1 cf 3a 2d 42
       -28.626114 -24.25732 -20.547997 43.30743
000010 9e 86 48 c2 f0 aa 08 40 ff 76 e8 c1 c0 d1 21 c2
       -50.131462 2.1354332 -29.058104 -40.454834
000020 5d 8f 0e c1 83 9a 98 41 14 cc 8d 3f fe 9b 21 40
       -8.910001 19.075445 1.1077905 2.525146
000030 fc 78 80 c1 08 83 f8 40 0c 6f ea c1 d0 c4 21 c1
       -16.059074 7.765995 -29.304222 -10.11055

layer1.1.bn1.running_var f4 [16]
000000 b7 de 71 44 d5 bb e4 43 6a 82 00 44 1e 6b df 43
       967.4799 457.46744 514.0377 446.83685
000010 8b 1a 9d 44 0c 4e 8e 43 3d 2c d1 43 20 f3 d4 43
       1256.8295 284.60974 418.3456 425.8994
000020 58 1c 37 44 a5 87 9a 43 7c 6d 79 44 67 57 01 44
       732.4429 309.05972 997.7107 517.36566
000030 32 32 24 44 f8 02 0c 44 92 3b 00 44 f9 bf 77 44
       656.7843 560.0464 512.9308 990.9996

layer1.1.conv2.weight f4 [16, 16, 3, 3]
000000 b0 17 88 bf d2 df 1f bb af 54 09 bf ba b7 7d bf
       -1.0632229 -0.0024394882 -0.5364484 -0.9910847
000010 ce 6b 01 be 2f d2 75 bf 8a 04 ea be 1c 4f 88 be
       -0.1263878 -0.9602384 -0.45706588 -0.26622856
000020 55 a5 2d bf b3 94 3b be cc 36 28 bf 19 fc e7 be
       -0.678304 -0.18318443 -0.65708613 -0.45309523
000030 e6 10 fb bf b1 89 0c c0 ba a5 01 c0 9b 85 db bf
       -1.9614532 -2.195904 -2.0257401 -1.7150148
000040 4c 6e ee bf 4a 6d e5 bf 47 c8 0b bf 9c 5a ea 3e
       -1.862741 -1.7923977 -0.54602474 0.45772254
000050 ee 99 a5 bf e1 3c 13 3e 14 55 22 be 86 b6 85 bf
       -1.2937601 0.14378692 -0.15852767 -1.0446327
000060 f0 3b 1a bf 73 de 0b 3f b8 26 90 3e 8b 53 b6 3f
       -0.6024771 0.54636306 0.2815454 1.4244245
000070 87 70 47 3f 45 c7 25 3f cc 8d 2a 3f 8a b9 44 bf
       0.7790608 0.64757186 0.66622615 -0.7684561
000080 55 55 33 be a9 de 35 3f 76 90 ac bf 28 b3 2c bf
       -0.1751302 0.7104288 -1.3481586 -0.6746087
000090 8d 25 77 3c a0 3e ed 3e 6f a5 a4 be 1b ca 96 bf
       0.015084636 0.46336842 -0.32157466 -1.1780428
0000a0 6e 7b 91 bf f4 70 b4 bf 8a 7f 54 bf 19 50 f6 be
       -1.1365793 -1.409697 -0.8300711 -0.48107985
0000b0 56 9e fe bf 28 d3 07 bf 47 86 22 3f 4b d8 4e 3f
       -1.989207 -0.53056574 0.6348614 0.80798787
0000c0 7f 3a 96 bf 4d 11 31 be 1f de 6f be 63 cf be bf
       -1.1736602 -0.17291756 -0.23424576 -1.4907039
0000d0 c0 b8 f2 be 1f 9f 21 bf 9d 6c 03 40 32 fb 3b 3f
       -0.47406578 -0.63133425 2.0535042 0.7343017
0000e0 2a f9 2b bf ab 82 a8 3f 5e 0a 3c be 7e e6 2e bf
       -0.6717707 1.3164877 -0.1836333 -0.68320453
0000f0 3e af 87 3e 69 4a 5a bd 0a 67 ce bb ee 54 61 3f
       0.26500887 -0.05329362 -0.0062989043 0.8802022
000100 c6 54 48 3f 70 3a 83 3f fb 17 94 3e b6 f9 74 3e
       0.78254354 1.0252209 0.28924546 0.23923382
000110 a2 1c 4b 3e 5a 25 3d be 58 75 9d be ed ad 7b bf
       0.19835141 -0.1847128 -0.3075359 -0.98312265
000120 d8 15 c9 be 0d 3b d2 bc 57 2b 50 be 76 aa 30 bd
       -0.39274478 -0.025662923 -0.20329033 -0.043131314
000130 cc 1a d4 be d0 f2 08 bf 64 77 86 3e 5c 42 cb be
       -0.41426694 -0.534955 0.26262963 -0.39699066
000140 28 4a bd be d1 01 f4 be ea a6 24 be ff 29 2e 3f
       -0.3697064 -0.47657636 -0.16079298 0.6803283
000150 c8 57 57 bf cd 1b c2 bf 09 ee 83 bf 78 83 66 bf
       -0.8411832 -1.5164734 -1.0307018 -0.90044355
000160 08 d9 d4 bf 4a 91 9d bf 95 a3 02 bf 38 ab 9c be
       -1.6628733 -1.2309964 -0.51030856 -0.3059938
000170 96 36 7a bf 8c 52 40 bf 92 e3 a9 bf e7 cd ef bf
       -0.9773954 -0.75125957 -1.3272574 -1.8734711
000180 58 95 55 bd d5 c2 e7 be 30 ec 3b bf 2b e3 77 bf
       -0.05214438 -0.45265833 -0.7340727 -0.96831006
000190 8f 49 c7 3e b0 54 4a 3f 9f 23 58 bf 07 af 0b 3f
       0.38923308 0.7903547 -0.84429353 0.54563946
0001a0 75 c8 d7 be e3 a8 b7 3f 7d 49 81 3f a4 5e cc be
       -0.42145124 1.4348415 1.0100552 -0.39915955
0001b0 75 69 59 bf 91 c6 b2 be 85 46 91 3f 08 b8 bb bf
       -0.8492654 -0.3491712 1.1349646 -1.4665537
0001c0 4a 33 eb bf fd 47 da 3e e0 1b 87 3d 19 cf 35 3f
       -1.8375027 0.42633048 0.065971136 0.7101913
0001d0 b6 13 ee 3f e3 d9 b2 bf 05 5e c5 bf 22 1d 14 bf
       1.8599765 -1.3972744 -1.5419317 -0.57856953
0001e0 3c ff 9e bf 69 bd 93 bf ab 14 81 bf 00 28 70 3e
       -1.2421641 -1.1542178 -1.0084432 0.23452759
0001f0 da 9e 9f be 2e 25 a7 bf a5 c6 09 c0 a0 f1 9e bf
       -0.31175882 -1.3058221 -2.1527493 -1.2417488
000200 ef 94 ab bf 3e aa 64 bf 35 d5 50 be 7f 68 a3 be
       -1.3404826 -0.8932227 -0.20393832 -0.31915662
000210 a5 82 55 be 32 00 56 3f fe c6 2c 3f bc e3 88 3e
       -0.20850618 0.8359405 0.6749114 0.26736248
000220 1c 68 21 3f 2c 64 fb 3e 73 ab 29 3f c5 2f 2e 3f
       0.63049483 0.49099863 0.66277236 0.6804164
000230 41 7f 1e 3f c3 72 9e be 3c f5 e8 be 3e ce d9 be
       0.61912924 -0.3094693 -0.454996 -0.42540163
000240 4c ce 26 bf be 0b fe be ca 96 2c 3e 7c a1 6f bb
       -0.65158534 -0.49618334 0.16854396 -0.0036564758
000250 f6 fc 53 3e 7f 70 fa be 10 34 24 bf c3 93 ee be
       0.20701966 -0.48913953 -0.6414194 -0.46597108
000260 dd 5d 95 bc df 2f eb be f3 b4 d6 3e 67 a7 d2 3e
       -0.018233234 -0.4593496 0.41934928 0.41143343
000270 dc d9 2f 3f 17 7f a2 3f bf ef da 3f 06 5c 6f be
       0.686918 1.2695035 1.7104415 -0.23374948
000280 6c cd c8 3e 89 9e 96 3f 79 9d 58 3e 09 78 4f 3f
       0.39219224 1.1767131 0.21153821 0.81042534
000290 78 d1 80 3f 4d f9 ab 3e f6 a2 42 bd b5 08 07 be
       1.0063925 0.3358864 -0.047518693 -0.13186915
0002a0 59 d9 8f bf fa b2 9e bf a9 72 49 be c7 66 62 bf
       -1.1238204 -1.2398369 -0.19672646 -0.88438076
0002b0 07 00 bd bf de df 29 c0 6b 4f 84 bd fd 70 75 be
       -1.4765633 -2.6542888 -0.0646046 -0.23968883
0002c0 0c 4f a5 bf c4 8a 9d 3e 1e 16 03 3f 4b 0d 02 3f
       -1.2914748 0.30769932 0.51205623 0.50801533
0002d0 42 39 4d 3e 4f 3e 1b be 9c 7e be be 24 eb 65 bf
       0.20041373 -0.15160488 -0.3720597 -0.8981192
0002e0 d8 a3 85 3e e0 f1 7e 3f ee 19 8c 3e 27 db 04 3f
       0.26101565 0.9958782 0.27363533 0.518969
0002f0 ff b9 83 3f 09 5b 98 be 6e c4 84 bf e3 be e9 be
       1.0291137 -0.29756954 -1.0372446 -0.45653448
000300 e6 f2 b4 3f 48 6a 64 3f 4f c3 59 3f 99 30 16 40
       1.4136627 0.8922467 0.8506364 2.3467162
000310 85 9d df 3f 99 ae 15 3f fc 49 1d 3f d4 aa e0 3f
       1.7469946 0.5846954 0.61441016 1.7552133
000320 1b 32 a8 3f 69 f9 31 3f e5 c2 73 3f 4c 96 62 3f
       1.3140291 0.69521195 0.9521926 0.88510585
000330 17 c8 db bf a6 83 b2 bf 51 66 af bd 69 b0 c7 bf
       -1.7170438 -1.3946426 -0.08564437 -1.5600711
000340 4c 20 bc bf 9f ff c5 be 8b 1d b4 bf 9b 4e d7 bf
       -1.4697356 -0.38671586 -1.4071516 -1.6820863
000350 43 28 a7 bf c4 38 80 3e 2e b3 41 be 03 29 b3 bf
       -1.3059162 0.2504331 -0.18916008 -1.3996891
000360 5e 6b b5 3d 6f c1 cf 3c fc 0c 96 bd 80 3e 2e 3d
       0.08858369 0.025360791 -0.07326695 0.042540073
000370 7b 89 9d be d1 31 26 bd a9 a7 03 3e 41 74 0a bf
       -0.30768952 -0.040574852 0.12856926 -0.5408364
000380 14 d7 59 bf 61 24 19 3f e8 a3 05 3f e7 46 2a bf
       -0.8509381 0.59821135 0.52203226 -0.6651444
000390 51 cb bf 3e 2f 7e b9 3d 74 85 8f bf e2 90 79 bf
       0.37459806 0.09057271 -1.1212602 -0.974867
0003a0 97 30 c9 be 57 bf 2d bf 13 c3 59 3e a3 c9 7c 3f
       -0.39294884 -0.67870086 0.21265821 0.98745173
0003b0 3a 73 35 bd f5 7e 37 be 54 e7 d8 bf e7 a5 26 c0
       -0.04429934 -0.17919524 -1.6945596 -2.6038759
0003c0 50 3b b8 bf 01 62 b5 bf 1e 06 fc be 55 6c 19 bf
       -1.4393101 -1.4170533 -0.49223417 -0.59930927
0003d0 70 ba fe bf 85 65 95 bf f4 f4 84 be 71 29 f0 be
       -1.9900646 -1.1671606 -0.25968134 -0.46906617
0003e0 4a c3 11 3f ac dd b9 3e ad a4 94 3e 54 94 cc 3e
       0.5693861 0.36301935 0.29031888 0.39956915
0003f0 14 7d 19 3f 60 6e d5 3f 0d b1 a5 3f fc d3 f0 be
       0.5995648 1.6674309 1.2944657 -0.4703673

layer1.1.bn2.weight f4 [16]
000000 de 6e cc 3e c9 b0 4c 3f 15 5e 3f 3f b7 5a bf 3e
       0.39928335 0.7995725 0.7475293 0.37373897
000010 8f a7 03 40 a4 bd a8 3e 9e 90 eb 3f 27 e7 0a 3f
       2.057102 0.32957184 1.8403509 0.5425896
000020 48 e7 55 40 1d e5 74 3f 5b f7 30 3f eb 7f 85 3f
       3.3422413 0.956621 0.69127434 1.0429662
000030 a3 c7 0b 40 bb 51 49 3f a7 6a 8c 3f 75 95 00 40
       2.1840599 0.78640336 1.0970048 2.0091221

layer1.1.bn2.bias f4 [16]
000000 2f cc ce 3e 70 33 08 bf f9 f9 34 3e 02 81 4e 3f
       0.40390155 -0.5320349 0.17673482 0.806656
000010 65 c9 5d c0 15 4c 35 3e 7a f4 be bf c1 ab 5e 3f
       -3.4654171 0.17704804 -1.4918358 0.86980826
000020 65 e9 db bf 23 8b 81 be a0 94 eb 3e 8f 33 be 3e
       -1.7180601 -0.25301465 0.4601183 0.3714871
000030 56 1b 72 bf 5a 7b 84 be 36 cf 80 bf 6f d3 d2 be
       -0.9457296 -0.2587536 -1.0063236 -0.41176936

layer1.1.bn2.running_mean f4 [16]
000000 1d 6d 91 c1 dd 9c 96 c0 e4 46 2f 41 59 e1 e7 40
       -18.178278 -4.7066483 10.954807 7.2462583
000010 71 77 ff 40 7c 63 b6 c0 9f b7 52 c0 c3 c5 19 c1
       7.9833302 -5.699644 -3.2924573 -9.610782
000020 5d f1 ce c0 60 d3 4b be 6a d8 62 c1 2f ef 07 c1
       -6.4669633 -0.19904852 -14.177835 -8.495894
000030 7b 98 82 3f 73 98 5e c1 fd c4 7e c0 e9 df 92 c0
       1.0202783 -13.912219 -3.9807732 -4.589833

layer1.1.bn2.running_var f4 [16]
000000 5f 53 12 43 7e 9b ca 42 66 c6 1e 43 08 3f d6 42
       146.32567 101.303696 158.775 107.12311
000010 d8 2b 18 43 86 e4 15 43 ae 62 e8 42 a1 7d de 42
       152.17126 149.89267 116.19273 111.24537
000020 14 7b 0e 44 d7 54 55 43 d9 39 27 43 a3 3f 3a 43
       569.9231 213.3314 167.22597 186.24858
000030 1c 37 4f 43 30 d2 41 43 5b 54 17 43 1b 8a 61 43
       207.21527 193.82104 151.32951 225.53947

layer2.0.conv1.weight f4 [32, 16, 3, 3]
000000 61 bd 6a bf a4 62 b6 bf 95 a6 9c bf 56 a2 47 3f
       -0.9169522 -1.4248853 -1.2238337 0.7798208
000010 fa e6 5a be de df 4f bf 39 4c dd 3f a1 3e d6 3f
       -0.21377173 -0.8120097 1.7288886 1.6737863
000020 d4 a2 b4 3f 93 64 55 bf a1 aa 18 3e ae 4c 6a bf
       1.4112191 -0.8335659 0.1490884 -0.91523254
000030 27 d2 9b 3e 1f ac af 3f e5 64 be 3f 4d 45 39 bf
       0.3043377 1.3724402 1.487454 -0.7237137
000040 19 a2 75 be f5 60 e2 be 95 b0 28 3f fa 72 ce 3e
       -0.23987617 -0.44214597 0.6589444 0.40322095
000050 60 fd a9 bd c5 81 91 3f 09 38 78 3f 00 25 15 bd
       -0.083002806 1.1367728 0.969605 -0.03641224
000060 0e b6 85 bf 73 6a 81 be e0 01 b9 3e 34 68 a7 bd
       -1.0446184 -0.25276527 0.36134243 -0.08174172
000070 83 17 61 3e 4c de b0 3f ba 1c 9c bf bf 56 c4 bf
       0.21981625 1.381784 -1.2196267 -1.5338973
000080 10 13 1f 3e b0 76 98 bf df 82 08 c0 ac bc be bf
       0.15534616 -1.191122 -2.1329877 -1.4901328
000090 7b 91 e6 bd 75 68 07 3f 21 7f 53 3f c5 18 ce bf
       -0.11258217 0.52893764 0.8261586 -1.6101309
0000a0 fb 2e 8f bf d9 3c fa 3e da 37 04 c0 67 0e a9 bf
       -1.1186212 0.48874548 -2.065909 -1.320752
0000b0 2a c4 77 bc a0 28 e4 be b2 e6 33 bf 9e 8c 14 be
       -0.015122453 -0.44562244 -0.7027389 -0.14506766
0000c0 3e 0b ad bf 43 ff 2f bf 69 a5 5f bf 6f 46 6a be
       -1.3519056 -0.68748873 -0.8736177 -0.22878431
0000d0 83 99 83 3e 9d 95 e5 3e 51 e8 9d bf 0c d8 23 3e
       0.25703058 0.44840708 -1.2336522 0.16000384
0000e0 fb 87 53 3e 61 b3 fb bd ee 75 c5 3f c9 90 6b 3f
       0.20657341 -0.12290073 1.5426614 0.920178
0000f0 85 c2 7f bf f2 e0 79 bf 4a 88 ab be fd 15 8d 3f
       -0.9990619 -0.97608864 -0.33502418 1.1022335
000100 b1 8d ae 3f 30 db 5d 3f 61 b0 64 3e 73 d1 72 3f
       1.3636991 0.8666258 0.22332908 0.94850844
000110 6e d6 2b 3f f4 21 be be 5d c2 15 3f da 28 88 3f
       0.6712407 -0.3713528 0.584997 1.0637467
000120 28 d0 41 bf 86 6c 4c 3f d3 74 00 3f 88 0a 8e bd
       -0.75708246 0.79853094 0.5017826 -0.069356024
000130 0e 30 c9 be e3 42 05 3e aa 72 c6 bc dc 30 d7 bf
       -0.39294475 0.13013797 -0.024224598 -1.6811786
000140 85 b3 2a 3f 0c 6a 9f bf 95 4f 90 bd 30 8f 85 be
       0.66680175 -1.2454238 -0.07046429 -0.26085806
000150 56 b5 b4 be 0f 6a a0 3e e2 fd 87 be 08 d6 dd bf
       -0.35294598 0.31330916 -0.26560885 -1.7330942
000160 b3 79 a8 bf 06 8a 28 bf 08 3e d2 be 4d 12 a6 3e
       -1.316214 -0.6583561 -0.4106295 0.32435837
000170 8b cf a4 bf 77 d3 8a 3d 94 96 29 3f c7 cd 49 be
       -1.2875837 0.06778615 0.6624539 -0.19707404
000180 70 38 8d 3e 49 10 45 3f ef c6 08 3f 12 c7 39 be
       0.2758212 0.76977974 0.5342855 -0.18142346
000190 4e e8 90 be c2 07 dc bf 31 6e 4d 3e fd 8d 3f bf
       -0.28302234 -1.7189867 0.20061566 -0.7482603
0001a0 e8 f8 5a bf b1 b4 aa 3f be b1 58 3e ea 53 3e 3f
       -0.8553605 1.3336393 0.21161553 0.7434679
0001b0 b6 3f 48 3e e9 17 3b bf 63 22 30 be bc b3 e1 bf
       0.19555554 -0.7308336 -0.17200617 -1.7632976
0001c0 7e 25 d5 bf 33 cc 1a 3e 28 4d 10 c0 63 fc f7 bf
       -1.6652067 0.15116958 -2.2547092 -1.9373897
0001d0 a5 a4 90 3e b9 f7 30 be d8 d4 ad bf 6a 9e 52 bf
       0.28250614 -0.17281999 -1.358058 -0.8227297
0001e0 a6 1f bd 3c 8f f6 06 bf e7 62 bf bf 6c 60 6d 3e
       0.02308638 -0.5271997 -1.4952058 0.23181313
0001f0 f3 40 22 3f 43 77 c1 be eb 11 18 bf 1b c5 1c be
       0.63380355 -0.37786302 -0.5940234 -0.15309565
000200 19 b9 12 3f 0a 05 a3 be 85 0b 9f bf b4 da cf be
       0.57313687 -0.31839782 -1.242539 -0.40596545
000210 01 e3 a8 3f c8 17 2d bf 6e f8 85 bf f9 3c 3b 3e
       1.3194276 -0.6761441 -1.046644 0.18284978
000220 76 2e 02 40 dd c6 35 40 e8 7c 51 be 0b 58 fd 3e
       2.0340858 2.8402627 -0.20457804 0.49481234
000230 57 70 dd 3f b3 05 29 bf 6e 5c 2b c0 00 a2 e0 3d
       1.7299908 -0.6602432 -2.6775165 0.10968399
000240 af ba a4 3f 79 39 52 3f 40 25 af 3d eb c6 b0 3f
       1.2869471 0.82118946 0.08552027 1.3810705
000250 e9 0e 68 3e bd ea 9b 3e f1 9b 26 3f d5 45 97 be
       0.22661938 0.3045253 0.650817 -0.29545465
000260 cb e8 54 be b6 90 34 bf 76 bb 28 bf 35 94 15 bf
       -0.20791928 -0.7053331 -0.6591104 -0.5842927
000270 44 7a a7 bf 2b 12 3b bf b7 37 fe 3e 05 15 32 bf
       -1.3084188 -0.730746 0.49651882 -0.69563323
000280 cf 63 40 bd 6d 54 3e 3f fa b8 77 be e0 ac 88 3e
       -0.046970185 0.74347574 -0.24191657 0.26694393
000290 e3 06 04 40 ca 28 94 bf d3 68 87 be 0c 1d 93 3f
       2.0629203 -1.1574948 -0.26447162 1.1493239
0002a0 18 e0 b5 bf 65 29 93 bf dd ef 1c 3f 71 af 9c be
       -1.4209013 -1.1497008 0.613035 -0.306026
0002b0 64 5f 44 be 1d 7a f8 be cf b3 1d 3e a7 5d c7 3d
       -0.19177014 -0.48530665 0.15400623 0.0973466
0002c0 bf 7b 0f 3f ff 87 8d 3e eb 81 f8 bd 18 76 35 3f
       0.56048197 0.2764282 -0.12134155 0.7088332
0002d0 dd ea 6a bd c6 44 30 3f 9a de a8 3b 9d 2b a4 3f
       -0.05735289 0.6885494 0.0051534893 1.282581
0002e0 87 07 67 3f 7a 3e c5 bf 7b 84 7f 3f 5c 21 06 bf
       0.9024586 -1.5409691 0.99811524 -0.5239465
0002f0 bb f1 d4 bf 89 9d 8f bf 2e 1d a7 be d4 e7 29 3e
       -1.663627 -1.1219951 -0.3263945 0.16592342
000300 5a 53 41 bf cd 99 ce be e1 17 a0 be 9d e3 d5 be
       -0.7551781 -0.40351716 -0.31268218 -0.41775218
000310 6d b7 47 bd 0f e2 16 bc 6e 2f 8e 3f 8e 1d 30 3f
       -0.048758913 -0.00920917 1.1108224 0.68795097
000320 90 ad 58 3e 3a 85 37 3f d9 11 0e 40 4b 5e 47 3f
       0.21159959 0.7168766 2.2198393 0.77878255
000330 d5 6c d1 3c 7b 7f 97 3f 2e 3b 05 3f 7c 8f 87 3f
       0.02556459 1.1835779 0.52043426 1.0590663
000340 8c 08 09 3f 26 04 a6 3f 8f 87 29 3f 37 07 d6 3e
       0.53528666 1.2970016 0.6622247 0.4180238
000350 0c c1 5d be 5b 59 52 bf 40 27 f8 be c8 98 2b bf
       -0.21655673 -0.82167596 -0.48467445 -0.6703
000360 97 10 c8 3e af 46 8f 3f a0 71 c1 3e 28 08 87 3f
       0.39075157 1.1193446 0.37782001 1.0549364
000370 4b c6 16 40 99 d7 d6 3e e6 5a 2d 3f 57 84 06 3e
       2.3558528 0.41961363 0.67716825 0.13136421
000380 bb fb 88 be 03 76 05 3f 00 7e 3d bf eb a6 26 bf
       -0.26754555 0.52133197 -0.74020386 -0.65098447
000390 77 b6 2f 3f e7 ac 10 bf c3 1e cc bf 53 5c 5b 3e
       0.68637794 -0.5651383 -1.5946888 0.21421938
0003a0 a5 59 6b bf f9 58 0a c0 73 fc eb 3e f0 d3 c9 bf
       -0.9193366 -2.1616805 0.4609104 -1.5767803
0003b0 a7 69 03 bd 92 c2 8d 3f 93 21 79 bf 03 f5 be 3e
       -0.03208318 1.1075003 -0.97316855 0.37296304
0003c0 2f fa 9a 3f 9f 29 c1 bf 26 4c 64 3e 41 18 ed 3e
       1.21076 -1.5090827 0.22294673 0.46307567
0003d0 8a fe 64 3f f4 6a 6e be 95 22 82 3f 43 63 83 3e
       0.89450896 -0.23282987 1.0166804 0.25661668
0003e0 a2 d8 ac bf b4 c2 b5 3f 66 4e 70 bf 9e 56 0e bf
       -1.3503611 1.4200044 -0.93869627 -0.5560092
0003f0 33 6d 74 bf 31 5e 17 be 59 af 1b bf a3 21 7a 3f
       -0.95479125 -0.14782025 -0.60814434 0.97707576

layer2.0.bn1.weight f4 [32]
000000 54 e7 c5 3f 70 71 a6 3f 5b df d4 3f fc 6c d9 3f
       1.5461221 1.3003368 1.6630663 1.6986384
000010 35 2e c2 3f 43 db bc 3f 53 1e c6 3f 20 91 bb 3f
       1.5170351 1.4754413 1.5478004 1.4653664
000020 b9 71 d9 3f c5 12 58 3f fc 78 f5 3f ce 6f 03 40
       1.698783 0.8440364 1.9177547 2.053699
000030 9f 40 1d 40 32 41 e1 3f a1 d0 c0 3f c7 88 e4 3f
       2.4570692 1.7598021 1.5063668 1.7854241
000040 6f b0 a9 3f 31 14 cc 3f 58 3c 98 3f 9e 37 de 3f
       1.3256968 1.5943662 1.1893415 1.7360723
000050 ff ff c0 3f e2 47 07 40 1f c8 d0 3f 5f 54 c3 3f
       1.5078124 2.1137624 1.6311072 1.5260123
000060 bf 77 d0 3f 14 9c bc 3f cc 03 da 3f 5e 7d bf 3f
       1.6286544 1.4735131 1.7032409 1.4960134
000070 d4 4d ce 3f 75 8f c5 3f 28 58 df 3f a0 c7 f0 3f
       1.6117501 1.5434405 1.7448778 1.8810921
